model/best_model.pth (torch, 47334 bytes, 6 tensors)

rnn.weight_ih_l0 f4 [100, 5]
000000 2c 8f 25 bc 64 48 96 bc c8 a2 09 bd 31 a8 b5 3d
       -0.010104936 -0.018345065 -0.033602506 0.088699706
000010 f5 f7 1e bd f9 d5 b0 3d 2e a2 ba bd d9 aa c1 bd
       -0.03881069 0.08634562 -0.091129646 -0.09456415
000020 f8 5f 1d 3d d7 17 e8 3b 73 39 54 bd 1b 04 85 bd
       0.0384216 0.00708292 -0.0518126 -0.06494924
000030 da 62 c4 3d 53 80 aa 3d ca e9 05 3c 48 d1 d5 bc
       0.09589167 0.08325257 0.008173415 -0.02610077
000040 40 52 ec 3c 71 0a 15 bd 40 22 92 bd 64 b2 56 bd
       0.028847814 -0.03638691 -0.07135439 -0.05241622
000050 e1 5b 5b 3d 16 84 a6 3d f8 28 a6 3d 2e 8d cd 3d
       0.05355442 0.08130662 0.08113283 0.100366935
000060 8a a9 a3 bd 43 6e 0b bd 7f 50 6a bc 4e c9 18 bd
       -0.079913214 -0.0340407 -0.014301418 -0.037301354
000070 35 20 17 3d 21 15 96 3d a9 bb 08 3d fe 05 64 3d
       0.03689595 0.07328249 0.03338209 0.055669777
000080 28 f3 04 3d 64 65 61 bc 1f 46 ab 3d de e8 53 3d
       0.032458454 -0.013757084 0.08362984 0.05173575
000090 73 07 9b bd a8 94 bc 3c e6 12 53 3d aa 5f cb bd
       -0.0756978 0.023020104 0.051531695 -0.09930356
0000a0 02 e5 83 3d 99 0d a1 bd 2a ec a5 3d 3d 95 b6 3d
       0.06440164 -0.07863922 0.08101685 0.08915184
0000b0 7a 71 67 bd ec 63 ae bd 9b 63 e7 3b 7f c8 63 3d
       -0.056504704 -0.08515152 0.0070614344 0.05561113
0000c0 59 8c 27 3d c7 61 6b bc 04 e2 3a 3d ac f3 a0 bd
       0.04090533 -0.014366574 0.0456257 -0.07858977
0000d0 5d 6b 96 3d 71 16 1a bd 11 fd 65 3d 6c 6c d7 3d
       0.07344697 -0.037619058 0.056149546 0.10518727
0000e0 4a 92 85 3d 6e e7 9c 3d 0a ea a2 3d 70 ad 34 3b
       0.06522043 0.07661329 0.07954796 0.0027569197
0000f0 45 ab ef bc b2 f0 14 bd 33 8e 9b 3d fb c6 6d 3d
       -0.029256472 -0.036362357 0.07595482 0.05805109
000100 f0 b4 b7 bd 0c e9 5b bc 30 d4 a6 bd 16 96 c2 bd
       -0.08970058 -0.013422262 -0.0814594 -0.09501283
000110 b6 21 c0 bd 06 26 ab 3a 32 c3 10 bd d0 7b 54 bc
       -0.0938143 0.0013057597 -0.035342403 -0.012968972
000120 d8 f8 8b bc 7d 5f 62 3d 73 5f c4 3d a6 c6 41 bc
       -0.017086431 0.055266846 0.09588518 -0.011827147
000130 a5 82 31 bd 21 34 d0 3c e0 f8 d4 3d ea 15 6c 3c
       -0.043337483 0.025415482 0.10399032 0.014409522
000140 74 c7 8e 3d 0c 2a 29 3d 7f e3 3b 3d 53 8f 5b bc
       0.069716364 0.041299865 0.045871254 -0.01340087
000150 13 46 a6 3d 86 1e b7 bc 25 ae 8e 3d e3 35 bf 3d
       0.08118834 -0.022353422 0.06966809 0.0933645
000160 db 2e 98 3d 5f 11 8e 3d 4a 95 76 bd 31 fb 27 bd
       0.07430812 0.06936907 -0.060200967 -0.04101104
000170 d7 fd 90 bd c3 5c 3d 3d c1 32 b5 3c 11 07 fd 3b
       -0.07079666 0.046231043 0.022118928 0.0077217896
000180 99 72 ff bb 9b 31 b7 3d 7a 34 2f 3d f5 02 43 bc
       -0.0077956435 0.08945008 0.042774655 -0.0119025605
000190 42 92 80 bc f3 98 b4 bd 20 7b 50 3c 43 7f 64 3d
       -0.015694741 -0.08818235 0.012724668 0.05578543
0001a0 af a2 9d 3c 15 5d bc 3d c9 a2 8e bd ce 04 32 bd
       0.019242613 0.091974415 -0.069646426 -0.043461613
0001b0 8c 02 02 3d 22 77 b9 3c 34 3b bc bc 86 ec e2 bd
       0.03174071 0.022639815 -0.022977449 -0.110802695
0001c0 5c c4 da 3c 4c 70 c7 3b 45 11 0f 3d 34 62 ef 3d
       0.02670496 0.006086385 0.03492858 0.11688653
0001d0 9f 6d 00 bd d6 c5 a3 3c d6 77 ac 3d 64 57 53 bd
       -0.031354543 0.019991796 0.084212944 -0.051597014
0001e0 aa 3d 02 3d a3 b0 f0 3d 80 93 a5 bd 63 5f e9 3c
       0.03179709 0.11752441 -0.08084774 0.028487867
0001f0 37 bb 6a bd 3d d6 5a 3d 48 37 3e 3d f1 a7 43 3d
       -0.05730745 0.05342697 0.04643944 0.047767583
000200 c1 32 f2 3c 21 4f 9b bd 4b 3a 4d 3d 5a 14 58 3d
       0.029565217 -0.07583452 0.05010442 0.052753784
000210 c8 1c a8 3d 0c 2c 17 bd 48 88 a1 bd 6d cb 91 bd
       0.082086146 -0.03690724 -0.07887322 -0.071188785
000220 80 63 c4 bc b9 78 2e bc 81 ef 90 bd ba a0 4b 3d
       -0.023973227 -0.0106489 -0.07076932 0.049713828
000230 4f 28 2a 3a b9 a8 ed 3d 7a f7 d6 3d f7 91 a9 3d
       0.0006490992 0.11604447 0.10496421 0.08279794
000240 33 ef c2 3b 21 23 c7 bd 88 52 c4 bd 1a 1d f2 bd
       0.005948925 -0.09723497 -0.09586054 -0.11821957
000250 bc 41 9c 3d 42 eb 20 3d 73 bd 94 bd 5e f1 e9 3c
       0.07629725 0.03928686 -0.07262697 0.028557476
000260 c7 77 f2 3c 5d 7c ac 3d df 54 c7 bc ee c3 e2 3c
       0.02959813 0.08422158 -0.024332462 0.027681317
000270 44 67 ab bd e4 0f 2d 3b 44 7b a4 bd 08 49 88 bc
       -0.08369306 0.0026407177 -0.080313236 -0.016636387
000280 55 dd 8f 3d f5 31 e8 3d 5e af ab 3d a9 ac f0 bb
       0.070246376 0.113376535 0.08383058 -0.0073448014
000290 cf ad 43 bd 3f dc b2 3d 61 80 3d 3d 8d 4f d1 3d
       -0.04777318 0.08733415 0.04626501 0.10220251
0002a0 00 f3 ab ba f6 6f 45 bd 45 4f c4 3d 0d fa a5 3c
       -0.0013118684 -0.048202477 0.09585432 0.020260835
0002b0 f8 86 cf 3d 82 fc c0 bc ba 9f b5 bd 00 ed b7 3d
       0.10133165 -0.023557905 -0.08868356 0.08980751
0002c0 c4 22 81 3d 88 cc d4 bc cf c8 a1 3d 62 6e 69 3d
       0.06305459 -0.025976434 0.07899629 0.056990035
0002d0 53 f8 d7 3d ff be 68 bd c5 44 95 bd fa 33 da 3d
       0.10545411 -0.056822773 -0.07288507 0.10654445
0002e0 a3 06 c1 3c 2a ea 9f 3c 97 f9 a9 bc cb 89 44 bd
       0.023562735 0.019520838 -0.020748897 -0.047982972
0002f0 72 07 8d 3c 0b cb ba 3d 25 12 3b 3d a4 20 cb bd
       0.017215464 0.091207586 0.0456716 -0.09918335
000300 d4 af 6b bd 08 66 e1 bd 7e 67 94 bd 36 33 5b 3d
       -0.05754073 -0.11005789 -0.07246302 0.053515635
000310 45 9a 1d 3d 89 16 8b ba 5c c7 59 3d 2b ca 1f 3d
       0.0384772 -0.0010611574 0.05316864 0.03901116
000320 23 c6 6a 3d a9 ee 91 3c 68 b1 11 bb 1e b7 4d 3d
       0.057317864 0.017813997 -0.0022230987 0.050223462
000330 a1 79 eb bc 00 8e 5a 3d e8 f4 45 bd 16 3d a2 3d
       -0.02874452 0.053358078 -0.048329264 0.079218075
000340 f9 42 b3 bd 97 bf 69 3c 66 fe 8b bd af 36 19 3d
       -0.087530084 0.01426687 -0.06835632 0.037405666
000350 d7 16 e8 bd 63 5b 47 3d 7a 71 51 3c 2e 0f fd 3c
       -0.11332481 0.048671138 0.012783403 0.030891027
000360 80 22 40 bb 55 f2 6d bd ab fc 4f bd 49 40 28 bd
       -0.0029317439 -0.058092434 -0.050778072 -0.041076932
000370 49 4e 54 3c c2 67 b5 bd 1c 98 92 3d 7e d5 c8 bd
       0.012958118 -0.08857681 0.07157919 -0.098063454
000380 6c 5c 42 3d be 65 9d 3d 47 53 4c 3d 65 78 96 bd
       0.04745142 0.076854214 0.049884107 -0.07347182
000390 f3 11 38 bc 9b c5 b3 3d b1 05 f2 bb e7 7c e0 bd
       -0.011234748 0.087779246 -0.0073859324 -0.10961323
0003a0 2c b7 9a 3d b3 c5 02 bd 27 d0 68 bd 8f 25 60 3d
       0.075544685 -0.031926822 -0.056839135 0.05472332
0003b0 3f d4 7a bd 34 87 f9 bc 08 e9 8f 3d a3 b5 78 3d
       -0.06123757 -0.030459978 0.07026869 0.060720097
0003c0 5b 7d 5a bd 39 29 c8 3d 58 75 74 3d 34 01 7d bd
       -0.053342205 0.097734876 0.05968222 -0.061768726
0003d0 6b 63 3b bd c7 fd 53 bd ee 55 85 3d f2 8e 93 3c
       -0.04574911 -0.051755693 0.065105304 0.018012498
0003e0 e4 86 36 3c 95 cd 02 3d c8 cb 55 bd 37 da 4f bd
       0.011140559 0.03193434 -0.052196294 -0.050745215
0003f0 d2 ba 58 3d ab 54 8d bd c8 e9 6e bd 7a 60 89 3d
       0.05291254 -0.06900915 -0.05832842 0.067078546

rnn.weight_hh_l0 f4 [100, 100]
000000 36 89 84 bd c6 1a 3d 3d 21 c0 c8 bd 9f f7 56 bc
       -0.064714834 0.04616811 -0.09802271 -0.013120561
000010 91 b2 0c 3d ec 80 ac bd 68 be 53 bc ca 47 d1 3a
       0.03434998 -0.084230274 -0.012923814 0.0015966829
000020 2f 4c cb bc 7d 42 fe bb ec 86 27 bb bf 08 00 3d
       -0.0248166 -0.007759391 -0.0025562597 0.03125834
000030 70 c5 b4 3d 1c a1 5a bd ce 30 c7 3c e6 cc 73 3d
       0.08826721 -0.053376302 0.024315264 0.05952158
000040 28 6c 75 3c 8b 35 42 3d 0c 69 64 bb 1a fd 5e bd
       0.0149794 0.047414344 -0.0034852652 -0.054440595
000050 c4 c8 b2 bc d9 04 57 bd b0 f4 ac bc 8e 0d 1b bc
       -0.021824248 -0.052494857 -0.02111277 -0.009463681
000060 f7 00 4e 3d 63 39 cf 3d 9a ea c6 3c 9c 79 9f bd
       0.05029389 0.101183675 0.024281789 -0.07786867
000070 ff bb e8 3c 72 c5 dd bd b8 4f 67 3d 5a a5 a9 3d
       0.028409956 -0.10828675 0.05647251 0.082834914
000080 1d d6 8d 3d 01 fc 4e bd f2 65 dd 3c 41 d4 a2 3d
       0.069256045 -0.0505333 0.02702615 0.079506405
000090 ee 83 9e 3d fa 41 12 bd 42 77 01 bc 61 c2 d2 3d
       0.07740007 -0.03570745 -0.007901968 0.10290981
0000a0 96 d2 bc 3d ae ac b7 bd 86 2e 6e 3d 32 42 a4 bd
       0.092198536 -0.08968483 0.058149837 -0.08020438
0000b0 69 15 86 bd 8b d2 91 3c da 89 7f 3b 43 b5 29 3d
       -0.065470524 0.01780059 0.0038992078 0.04143263
0000c0 45 8d af 3d 96 ed 2a 3d ce 8c 66 3d 45 bb 14 bc
       0.08571867 0.041730486 0.056286626 -0.009077852
0000d0 60 71 7a 3d 0d 78 d0 3d 38 88 ad 3d de 42 b5 3d
       0.06114328 0.10179148 0.08473247 0.088506445
0000e0 43 0d 67 3d 0d fd 02 bd 42 43 99 bd c8 63 b8 3c
       0.05640913 -0.03197961 -0.074835315 0.022508517
0000f0 b1 03 41 bc 85 9b f3 bc 37 e9 97 bd 30 a6 b9 3d
       -0.011780665 -0.029737243 -0.07417529 0.09064901
000100 1c 02 64 3d 7c fd 99 bd f1 b3 3f bc 81 7f 2c bc
       0.055666074 -0.075190514 -0.011700616 -0.010528446
000110 a4 fb 2a bd de c4 2a 3d 27 0c 87 bd 56 30 c4 bc
       -0.04174389 0.041691653 -0.06594115 -0.02394883
000120 54 1a 37 3d 60 29 8a bb ef ba fb bc 14 5d 54 bc
       0.044702843 -0.004216358 -0.030728785 -0.012961645
000130 a8 e4 58 3d ae b5 9d bd 28 8b a2 ba 3c 10 3f 3d
       0.05295244 -0.07700668 -0.0012401091 0.04664634
000140 b1 27 ed 3d 26 51 52 bd 96 9b 98 bd 7d e0 21 bd
       0.11579836 -0.05134692 -0.07451551 -0.03952073
000150 3d bc 98 bc 9c a8 87 3d c1 a7 59 39 22 00 6a 3d
       -0.018644447 0.066239566 0.00020757226 0.057129033
000160 ac 4c 8a bc d8 eb 6e bd 1e ea 97 bd 5c 8d 99 bd
       -0.016882263 -0.058330387 -0.07417701 -0.07497665
000170 a6 e4 26 3d 24 87 69 3d 6a 2d 25 ba 72 66 03 3d
       0.0407454 0.057013646 -0.0006301018 0.03208012
000180 3c 47 bb 3d 03 9a 1a 3d 7e d6 74 3b 8a 9c 8e 3d
       0.09144446 0.037744533 0.0037359293 0.06963451
000190 ed 6b 51 bd a5 6d 10 bd 83 35 c0 3d b1 18 8d 3d
       -0.051128317 -0.035260815 0.093852066 0.06889475
0001a0 29 ad 60 bd 43 10 9c bd 19 c2 99 3d 5b ae 9d bb
       -0.05485264 -0.07620289 0.07507724 -0.0048120446
0001b0 69 e4 29 bd 7c 5c a8 3d a1 cb 76 bd b9 99 a5 3c
       -0.041477595 0.08220765 -0.06025279 0.020214902
0001c0 e3 dc 9f bd f7 41 fc ba 66 5d b1 3d bd b9 b3 3b
       -0.07805803 -0.0019245733 0.086603925 0.005484788
0001d0 c3 26 93 bd 50 cd b4 3c d7 f8 93 bb ff 8e 30 bd
       -0.071851276 0.022070557 -0.004515748 -0.04310512
0001e0 be 96 4a bd 54 d4 85 bd a8 4a b5 3d f6 ac 6a bd
       -0.049460165 -0.06534639 0.0885213 -0.057293855
0001f0 38 c0 38 bd 1a 35 bd 3d f8 02 17 bd 43 b7 73 bd
       -0.04510519 0.09238644 -0.036868066 -0.059500944
000200 a8 d6 95 3c fc 6a 75 bd dd 50 a1 bd 93 2e 5f bc
       0.018290833 -0.05991648 -0.078767516 -0.013621944
000210 60 e5 6e bd e1 7f 4f bd cf 58 8f 3d ab c7 2f 3d
       -0.058324218 -0.050659064 0.06999361 0.042915028
000220 93 d8 e6 ba b0 45 a0 3d be f2 a7 3d 1a 9d 8c 3c
       -0.0017612152 0.07825792 0.08200596 0.017164756
000230 e4 87 9c bd d4 a1 a7 bd 25 e8 19 bd c4 73 b1 3d
       -0.076431066 -0.08185163 -0.037574906 0.08664659
000240 e6 c1 09 bd 79 c9 c3 3d 7b 9d 93 bd 9c ae 6a bb
       -0.03363218 0.09559912 -0.072077714 -0.0035809642
000250 92 dc e6 bb 3a cd fb 3c 36 5e a1 bb 9b be 1d bd
       -0.007045337 0.030737508 -0.004924561 -0.038511854
000260 ed 7e 9e 3d 4b 26 4e 3d b0 15 c1 3c f4 a9 aa 3d
       0.07739053 0.050329488 0.023569912 0.08333197
000270 01 d0 e4 3c 74 6d 50 bd 6f cf 3c 3d 5f 63 af 3d
       0.027931215 -0.050885633 0.04609626 0.085638754
000280 d9 90 2a bc 0b a2 e9 bb ac b5 86 bd a8 63 9e 3d
       -0.010410511 -0.0071299127 -0.0657762 0.07733852
000290 0f e4 c8 3d 78 a3 c3 bd 6a 10 71 bd ce da b5 3b
       0.09809124 -0.095526636 -0.058853544 0.005549765
0002a0 df 97 13 3d 40 ad 33 bd 92 b5 32 3c da 94 cc b9
       0.036033507 -0.043866396 0.010907548 -0.00039020815
0002b0 03 52 bb 3d 17 a1 a4 bd f2 f0 47 3d a6 28 04 bd
       0.09146502 -0.08038538 0.048813768 -0.032265328
0002c0 07 55 bf bd aa 07 82 bb 73 65 a1 bd 3a be 9e 3d
       -0.093423896 -0.003968199 -0.07880678 0.077511266
0002d0 34 ca cb bc e1 dd a0 3b 0a 20 6a 3c 4c bf a9 bd
       -0.024876691 0.0049092625 0.014289865 -0.0828844
0002e0 14 27 12 3d a6 ea 22 bd cd 1f ec 3c 40 74 a6 3c
       0.0356818 -0.03977456 0.028823758 0.020319104
0002f0 79 0a 0f 3d 88 d1 9e bc 14 61 1a 3c 58 10 3b bd
       0.034922097 -0.019387022 0.009422559 -0.045669883
000300 83 76 e1 bc 7d d6 3b 3d 39 24 b1 bd c3 3b df bc
       -0.027522331 0.04585885 -0.08649487 -0.027250176
000310 c4 08 ae 3d 0e 3d 9c bd bb 28 19 bd 33 32 42 3d
       0.08497766 -0.07628833 -0.03739236 0.047411155
000320 c2 36 a5 bd 11 67 96 bd 52 08 b4 bd 94 00 e4 bb
       -0.08067085 -0.07343877 -0.087906495 -0.0069580767
000330 e4 96 b4 3d 91 68 98 3c be 95 8b bd 5a 38 a9 bd
       0.088178426 0.018604549 -0.068156704 -0.08262701
000340 ea 91 06 3c 07 82 14 bd cd 14 09 bd 88 33 87 3d
       0.0082135 -0.036256816 -0.033467103 0.06601626
000350 45 5b 4f 3c 9d e6 cc bd 0e 55 cb bd 34 5c 74 bd
       0.012656038 -0.100049235 -0.09928332 -0.059658244
000360 d1 7b 6c 3d cc c5 93 bc 89 58 46 bd 29 6d 18 3d
       0.057735268 -0.018038653 -0.048424277 0.03721348
000370 e6 7a 81 3c 95 cb 91 3b e8 22 4b 3c 5f 2d 32 3d
       0.015805673 0.0044493177 0.012398459 0.0435003
000380 08 11 a2 bd a3 9b 95 3d 5b 64 0f 3c c5 cd a3 3b
       -0.07913405 0.07305076 0.008751954 0.004998895
000390 63 c2 6f 3d 48 98 00 bd f0 cd 3b 3d da e2 86 3d
       0.05853499 -0.031395227 0.045850694 0.06586237
0003a0 94 80 d5 3d fb 90 29 bd 40 06 89 3d 95 b7 83 3d
       0.10424915 -0.04139803 0.06690645 0.064315
0003b0 41 b4 be bd 5c dd 89 bd a4 b4 8a bd ed d2 31 3c
       -0.093117245 -0.06731674 -0.06772736 0.010853511
0003c0 b4 54 36 bd 4e 87 a4 3d fa ad ae 3c 06 56 9d 3c
       -0.044514373 0.0803362 0.021323193 0.019206058
0003d0 76 9b 02 3d 9c 4c 06 bd 1a 00 b2 bd 41 c6 07 bd
       0.03188654 -0.032787904 -0.086914256 -0.033148054
0003e0 43 c8 60 3d 82 0a a9 3d f5 70 43 bc 96 b7 0f bd
       0.054878484 0.08253957 -0.0119287865 -0.03508719
0003f0 f1 61 9f bc 48 76 c2 bd 10 aa 9e 3d 3a dd b5 bc
       -0.019455882 -0.094952166 0.077472806 -0.022200216

rnn.bias_ih_l0 f4 [100]
000000 d0 3c 97 bd 7b 68 a4 bd c8 a4 2c 3c 6c 99 ac 3d
       -0.07384646 -0.080277406 0.010537334 0.084277004
000010 21 6b a7 3c 04 89 4c bd 9e 21 62 3d 9c 52 3e bd
       0.020436825 -0.049935356 0.05520784 -0.0464655
000020 55 3a c4 bc de 9a ab bd 16 42 86 3d c7 54 b1 bd
       -0.023953596 -0.08379148 0.06555574 -0.08658748
000030 4b 9f b4 bd 5a b2 a0 bd 84 e5 4d 3d c2 3a 99 bc
       -0.08819445 -0.07846518 0.05026771 -0.018704776
000040 6d 10 9a bd a4 98 d0 bc b6 1a 15 bd 8f 11 46 bd
       -0.07522664 -0.02546341 -0.036402427 -0.04835659
000050 92 09 f2 3c 65 3f 19 bd 52 dc 9f 3d 28 5b 68 bd
       0.02954558 -0.037413973 0.07805695 -0.05672756
000060 4e 47 8b 3c ee 8c a3 3d 78 a5 a2 bd cb 7c 4a 3d
       0.017001774 0.079858646 -0.07941717 0.049435418
000070 bb 34 8d 3d c6 98 c0 3c ba ba 29 39 24 04 b6 3d
       0.06894823 0.023510348 0.00016186657 0.088875085
000080 0f 91 87 3d b0 02 89 bb d1 6a 40 bd d9 b1 aa bc
       0.066194646 -0.0041812286 -0.046976868 -0.020836757
000090 56 2c 8a bd 5d 60 a5 3c aa 50 fe bb ac d3 31 bd
       -0.06746738 0.020187551 -0.0077610807 -0.043414757
0000a0 ad db f3 bc 78 7c 82 3c 37 78 15 3d ee 82 7e 3c
       -0.029767836 0.015928492 0.0364916 0.015534146
0000b0 77 54 9e bc 44 5a e5 3c f8 8d 53 3d 5a f5 c7 bd
       -0.019327385 0.027997144 0.051649064 -0.09763594
0000c0 be 5c a9 3d 2b 51 e4 bc 3c ef be 3d 8a 7f a8 bd
       0.08269642 -0.027870735 0.09322974 -0.08227451
0000d0 79 16 14 bd 60 19 80 3d e1 e8 b1 bd 54 d8 84 bd
       -0.036154244 0.0625484 -0.08686996 -0.06486574
0000e0 ac 81 b7 3d 5e 66 d5 3c 6c 03 1e 3a e3 ee e3 3c
       0.0896028 0.026049789 0.00060277316 0.027823871
0000f0 11 c6 6b bc 12 18 fe bc 0f 53 40 bd e8 8a 9f bc
       -0.014390484 -0.031017337 -0.04695421 -0.019475415
000100 2f d2 8b bd d8 b2 8b b9 5e a6 a4 3d d9 ba b8 ba
       -0.06827199 -0.00026645395 0.080395445 -0.0014093771
000110 d5 3f ee bc 0f ba 7f 3b ec 01 9f bd c8 f7 67 bd
       -0.029083172 0.0039020812 -0.077640384 -0.056632787
000120 89 7c 09 3d a1 5d 49 3d ec 6a d4 3c 03 f9 d2 3c
       0.03356603 0.049161557 0.02592989 0.025753504
000130 08 29 91 3d b0 b4 70 bd d1 3b a1 3d d3 b4 a9 bd
       0.07087904 -0.058766067 0.07872737 -0.082864426
000140 e6 af f9 bc b5 23 b0 bd 34 3a 4e 3d 19 8a b6 bc
       -0.030479383 -0.086005606 0.050348476 -0.022282647
000150 1b 80 ef bc be 43 cc 3a ee 30 c9 bd a2 47 8a 3d
       -0.02923589 0.0015584154 -0.09823786 0.06751944
000160 35 2a 72 bd 3a 45 6b bc 86 19 33 3d b0 51 0d bd
       -0.059122283 -0.014359767 0.043725513 -0.03450173
000170 28 10 35 bd 8e 6b 9c 3d 24 cf a0 3d 5e bd 2e bb
       -0.04420486 0.07637702 0.07852009 -0.0026663165
000180 de f7 02 3d 6f a3 62 bd 3a 8e a4 3c e0 0f 4b bd
       0.031974666 -0.055331644 0.02008735 -0.049575686

rnn.bias_hh_l0 f4 [100]
000000 c9 03 99 3d 64 0a 83 3d e7 bf ed bc 86 cc ca 3d
       0.07471425 0.06398466 -0.02902217 0.09902291
000010 ae 0c cc 3c f0 6a 7a bd c6 21 44 3d c0 b5 5b bd
       0.02490839 -0.06113714 0.04788377 -0.053640127
000020 8b 72 41 bd 17 e6 b1 bd 43 df 8b bc de 4f e4 3c
       -0.047228377 -0.08686464 -0.017074233 0.027870115
000030 c9 d1 6c bd 83 ce 3f bd 3b cb b9 3d a1 ec 4b 3d
       -0.057817254 -0.046827804 0.09071966 0.049786214
000040 69 b3 c7 bc bc d6 c2 3c 47 87 2f bd 08 49 07 bc
       -0.024377542 0.023784034 -0.04285362 -0.008257158
000050 e5 3f 77 bd 47 dc 3b 3d e1 03 2c bd 6b 57 62 bd
       -0.06036367 0.04586437 -0.041995887 -0.05525915
000060 44 72 a9 3d 1e d2 64 bd 68 d2 8e bd 7d 85 9a 3d
       0.082737476 -0.055864446 -0.069737256 0.07544992
000070 91 02 d8 bc d4 88 ef 3b 2f 2d 13 bb 66 e1 06 3c
       -0.026368411 0.0073100124 -0.0022457351 0.00823245
000080 4e 9d 21 bd 18 71 20 bc 26 f4 67 bd a2 68 6d 3d
       -0.039456658 -0.009792589 -0.056629322 0.057961114
000090 bc be 2d bd 9b 8c 00 bd 8c 3e 56 bd 86 0c 80 3d
       -0.042418227 -0.03138409 -0.052305743 0.06252389
0000a0 eb 3a 93 bd a2 65 80 3d 26 90 c4 3c 32 2b 92 3c
       -0.07188972 0.06269385 0.023994517 0.017842863
0000b0 29 ee d3 3c d5 99 a5 bd 2f ad 81 bd 68 f4 68 3c
       0.0258704 -0.08085982 -0.0633186 0.014218427
0000c0 66 ce b9 3d af ba b7 bd 01 8e 07 3d aa 43 15 bd
       0.090725705 -0.08971154 0.03309441 -0.036441483
0000d0 0d 5a 3d bd c2 37 9e bd 7f 0e 94 3d a5 1c d7 bc
       -0.046228457 -0.07725479 0.072293274 -0.026258776
0000e0 44 21 ab bd 06 ab b3 3d 53 e5 67 bd 22 e3 a9 3d
       -0.08355954 0.087728545 -0.056615185 0.08295275
0000f0 f4 1a aa 3d c6 38 12 3c b6 d2 6b bd ed 7a c3 3c
       0.08305922 0.008924669 -0.057573996 0.023862327
000100 1d d3 21 bd fe 46 01 bc 17 20 c9 bc 99 e1 d1 bc
       -0.039507974 -0.007890461 -0.024551434 -0.025620269
000110 7b b6 82 bd a9 bf 8b bd 25 26 d8 3c 91 98 90 3d
       -0.06382462 -0.06823666 0.026385376 0.0706035
000120 89 34 1a 3d 48 ad 2c 3d 23 ac 97 3d 63 6f 04 3d
       0.037647758 0.04215744 0.07405879 0.03233279
000130 f0 84 af 3d 6d 90 5b bd 39 6a ae bb 28 a8 a7 3d
       0.08570278 -0.053604532 -0.0053227213 0.0818637
000140 d3 2c 93 bd 77 6b 50 bd be cb 8a bd 42 d7 bb bc
       -0.07186284 -0.050883736 -0.06777142 -0.022929791
000150 fc 31 1d bd 0a cc 58 bd e6 a6 b9 bd f7 c0 12 bd
       -0.038377747 -0.05292896 -0.090650365 -0.035828557
000160 46 7b e9 bc ba ae 97 3d 9d 18 13 3d 79 ff 46 3d
       -0.028501164 0.07406373 0.035912145 0.04858348
000170 85 3b 0d 3d 73 aa c6 bd e0 ac 66 3d 99 06 39 bd
       0.03448059 -0.09700479 0.05631721 -0.045172308
000180 a4 7c a6 bb 16 91 69 3d 93 dd 70 3d d0 cb 9f 3d
       -0.0050807763 0.05702313 0.05880506 0.07802546

fc.weight f4 [5, 100]
000000 f6 60 84 bc 20 86 6a bd e3 0c 67 3d fa f4 bb 3d
       -0.016159516 -0.057256818 0.056408774 0.09177585
000010 24 36 a6 bc fe 64 55 bc e4 fd 6c bc 6c 21 98 bd
       -0.020289488 -0.013024567 -0.014464829 -0.0742825
000020 4e 4e 58 bd 5d 98 e4 3c 49 59 85 3d d9 c2 8a bd
       -0.052809052 0.027904684 0.065111704 -0.067754455
000030 5e e5 8b 3d da 00 b0 3d d9 0f 03 3b de b2 45 3c
       0.06830858 0.085939124 0.001999846 0.012066571
000040 5e 82 9b bd bc f2 a4 bc b6 b7 b8 3d 84 c8 94 bc
       -0.07593225 -0.020135276 0.09019415 -0.01816202
000050 74 b2 40 bd 7d 68 80 3d 40 12 bb bd ab d2 f3 3d
       -0.047045186 0.062699296 -0.0913434 0.11905416
000060 05 4b ea 3c 97 c4 d5 3c 25 36 f8 bb cf 3b 37 3d
       0.028600225 0.026094718 -0.007574814 0.044734772
000070 a6 20 bc 3d e6 18 87 bd c8 7b 4b 3b 84 a0 7b 3d
       0.09185915 -0.06596546 0.0031049121 0.061432377
000080 3e 1a 50 bc a9 57 34 bd f1 be 51 3d f4 09 91 bc
       -0.012701569 -0.04402891 0.051207487 -0.017704941
000090 fc a4 6e bd 01 7f 99 bd c7 8d 49 3d 4c df a0 bd
       -0.05826281 -0.07494927 0.049207475 -0.078550905
0000a0 19 aa a6 3d 7a f6 59 bd 25 46 6f bc 32 f2 7d bb
       0.08137912 -0.053213574 -0.014604126 -0.0038749096
0000b0 b2 05 85 3c e7 58 64 3d 39 a7 b5 bd 4a 20 3b 3d
       0.016238067 0.055748846 -0.08869786 0.04568509
0000c0 de 3d b5 3d a2 28 48 bc 62 76 58 3d 1e 3a 9b bd
       0.08849691 -0.012216719 0.052847274 -0.07579444
0000d0 19 07 2a 3d 64 96 af 3d 3a 35 cd bb 2e e3 63 3d
       0.041510675 0.085736066 -0.0062624486 0.055636577
0000e0 0d e9 5b bd 6a f2 99 bd e5 76 ae bc 0a fa 16 3d
       -0.05368905 -0.0751694 -0.021296928 0.03685955
0000f0 e8 33 a9 3d 72 19 3b 3d dd 5e 41 bd bf 9a b2 3d
       0.082618535 0.045678563 -0.04720961 0.08720922
000100 fd ff 11 3c df 8d 7b 3d db a9 15 bd 28 4d e8 3c
       0.00891113 0.061414596 -0.03653894 0.028357103
000110 ac 6a 99 bd c1 99 53 bd 58 88 94 bd 4b 6e ae bc
       -0.07491049 -0.051660303 -0.07252568 -0.021292826
000120 62 ed f3 3c 34 7d 93 bd 89 c4 ba bd c6 8e d7 bd
       0.029776279 -0.07201615 -0.09119517 -0.10525279
000130 9e 2b 98 bd 1c 1a ca 3d a3 7d b4 3d 68 fd 0b bd
       -0.07430194 0.09868261 0.08813026 -0.034177214
000140 e6 f6 29 bd 77 09 8b bd ae 87 4b 3d 21 7b d2 3c
       -0.041495226 -0.06788915 0.04968994 0.025693478
000150 4a ed b0 bc 1d 0e b3 bd 2e d4 71 bd f3 6f 01 bd
       -0.021597523 -0.08742926 -0.05904024 -0.031600904
000160 07 a9 b6 3d d7 5b c4 3c 11 45 5d bc f9 e7 11 3d
       0.08918958 0.023969574 -0.013505236 0.035621617
000170 78 d5 f4 3c 37 1a fd bc 64 57 ad 3d 6c 1b c6 3c
       0.029886946 -0.03089629 0.08463934 0.024182998
000180 73 ac b0 3d f1 93 75 3c 92 f6 b1 3c 12 75 1e bd
       0.08626642 0.014988885 0.02172402 -0.038685866
000190 bc 87 73 3b a2 92 ba 3d f8 49 47 3d d8 5c bc 3d
       0.0037159761 0.09109999 0.048654526 0.09197396
0001a0 96 ca d7 3c 8c 13 ac bc 32 5a ac 3d 52 84 10 bd
       0.026341718 -0.021005414 0.08415641 -0.03528244
0001b0 6b 67 8c bd 59 0f ab bd 70 ac 90 3d bd 1b 96 3d
       -0.06855663 -0.08352537 0.0706414 0.073295094
0001c0 d6 bd ba 3d 77 21 25 3d 88 db de bb 53 19 48 bb
       0.091182396 0.040315118 -0.0068010725 -0.0030532673
0001d0 41 5f a0 bd 0c 3d 1b 3d 40 c3 a3 3d 94 04 4f 3c
       -0.07830668 0.037900016 0.07996225 0.012635369
0001e0 8e d4 51 bc 8f b7 1a 3d 72 6f ea bc 66 9f bd 3d
       -0.012807025 0.03777271 -0.028617594 0.092589185
0001f0 63 85 7a 3d dd 39 6b 3d 47 3a 9d 3a 98 23 00 bb
       0.061162364 0.05742823 0.0011995517 -0.0019552466
000200 47 97 2e 3d 18 70 ad bd 0a 7a 67 3d 94 f3 7c 3c
       0.042624738 -0.08468646 0.05651287 0.015438933
000210 78 ff 95 bd 42 68 cf 3d 0a 58 a9 bc ef 29 68 3d
       -0.073241174 0.101273075 -0.020671863 0.056680616
000220 6b 08 50 3d 7c 2d db 3d 0a 67 a3 bb 63 3e 5c 3d
       0.050789278 0.10702035 -0.0049866484 0.053770434
000230 be d1 38 bd 9d 8a fa bc 9c 04 74 3d 00 b8 0f 3d
       -0.0451219 -0.030583674 0.05957471 0.035087585
000240 9d fa 90 bc c1 fa 9f bd 71 a5 a3 bd a5 2a 3f 3d
       -0.017697627 -0.078114994 -0.0799054 0.04667153
000250 1c 38 66 3c 9f 0d b3 bd 51 f3 0a bd 7d 94 f3 bc
       0.014051463 -0.087428324 -0.03392345 -0.02973389
000260 a9 09 9f bd 5c bc 8e bd 04 a5 8c 3d 08 26 8b 3d
       -0.077655144 -0.069695204 0.06867412 0.06794363
000270 19 b8 14 bd a0 f8 aa bc 7b 13 05 3d de 49 b4 bd
       -0.03630838 -0.020870507 0.03248928 -0.088031515
000280 08 64 9d 3d 83 66 bd 3c 9a a8 9d 3c ea b8 b3 3c
       0.07685095 0.02312017 0.019245435 0.02193876
000290 9b 47 9d bd 2f 02 24 3d 56 71 91 3d 61 42 95 bd
       -0.07679673 0.040041145 0.07101695 -0.072880514
0002a0 b4 1d e3 bc ab 33 90 bd f5 e7 39 bd c0 bd ba 3c
       -0.027724124 -0.07041105 -0.045387227 0.022795558
0002b0 5b 80 a7 3d 28 4d 87 bd 2b 9e f3 bc c8 4f a3 bd
       0.08178779 -0.06606513 -0.029738506 -0.079742014
0002c0 f3 fa eb bc 1a cc ad 3d cb 8e b8 bc 4a 77 51 3d
       -0.028806185 0.08486195 -0.022529026 0.051139154
0002d0 89 85 e8 bc 5a 78 9a 3d a7 98 b1 bd 45 b8 89 bd
       -0.028383987 0.075424865 -0.08671694 -0.067246
0002e0 95 14 17 bd 62 c4 a8 bd 38 3e a5 bd 5b 82 cd bd
       -0.036884863 -0.08240582 -0.08068508 -0.10034629
0002f0 fa ef 3e 3d f2 dc 7e 3d c7 1f b0 3c fe a2 b9 3c
       0.04661558 0.06222243 0.021499528 0.022660729
000300 6e ef c1 bd 9f cd 62 3d 36 93 9a bd 6b 7e b3 bd
       -0.09469496 0.055371877 -0.075476095 -0.08764347
000310 b8 2d 6f bd 11 80 7b 3d 31 b8 8e bd fa 8f f7 3b
       -0.05839321 0.06140143 -0.069687255 0.007555005
000320 39 ae d6 3d e5 65 75 bb 00 ef a1 3c 9e e2 de bc
       0.10482449 -0.0037444767 0.019767284 -0.027207669
000330 64 8c 18 3d 8c 0b 5f 3d 72 80 28 3d 7b cf 89 bd
       0.037243262 0.05445437 0.04113812 -0.06729027
000340 16 ef d4 3d e7 b8 b5 bd f2 c3 e8 3c d8 5d 02 3b
       0.103971645 -0.08873158 0.028413747 0.001989236
000350 d0 bd 77 3d da c6 cb bd 8b fc 66 bd de 79 f9 3a
       0.060483754 -0.09950037 -0.056393187 0.0019033512
000360 20 59 43 bc 4f ca 52 bd e6 b3 94 3c de 8e c9 3d
       -0.0119231045 -0.051462468 0.018152189 0.09841703
000370 dc b9 8e 3d 57 f7 55 bd 5b de 44 3d 5f 29 ac 3d
       0.069690436 -0.052237835 0.048063617 0.084063284
000380 52 f9 b0 bb ab 6f bc 3d 32 ba bd 3c 7a 1a 39 bd
       -0.005400815 0.092009865 0.023160074 -0.045191266
000390 69 50 ea 3d 02 67 0b 3d a1 fe ce 3d 07 bd bf bd
       0.11441118 0.034033783 0.1010716 -0.09362226
0003a0 4e f5 82 bd 60 7b 5b 3d ab e9 d2 3d 94 05 4e bd
       -0.063944444 0.053584456 0.10298475 -0.05029829
0003b0 be d6 8a 3d f2 3a 98 3d 16 49 c4 bc c8 8e 60 bd
       0.0677924 0.07433118 -0.023960631 -0.054823667
0003c0 4e e5 e3 3c 68 e0 3f bd 1f fd 87 bd fe 2f 7a bd
       0.027819302 -0.04684487 -0.06640076 -0.061080925
0003d0 a3 19 25 bd a6 45 36 bd 24 74 da 3d 42 c9 86 3b
       -0.040307652 -0.044500016 0.10666683 0.0041133473
0003e0 73 4b 93 bd d3 39 9f bd fa f5 9b bd c5 cf 82 3d
       -0.07192125 -0.07774701 -0.07615276 0.06387285
0003f0 3d c2 c8 bb eb a2 b7 3d bc 1b 7b bd f6 32 a7 bd
       -0.0061266706 0.08966621 -0.061305746 -0.08164017

fc.bias f4 [5]
000000 0a 7f aa 3d 1a 84 38 bd 97 ed 3a 3d 51 65 6b bd
       0.08325012 -0.045047857 0.04563674 -0.05746967
000010 a7 18 24 39
       0.00015649443
